Accuracy: 40.0%, Avg loss: 1.608159
NeuralNetwork(
  (linear_relu_stack): Sequential(
    (0): Conv2d(3, 6, kernel_size=(5, 5), stride=(1, 1), padding=(2, 2))
    (1): ReLU()
    (2): MaxPool2d(kernel_size=3, stride=2, padding=0, dilation=1, ceil_mode=False)
    (3): Conv2d(6, 9, kernel_size=(3, 3), stride=(2, 2), padding=(1, 1))
    (4): ReLU()
    (5): MaxPool2d(kernel_size=3, stride=2, padding=0, dilation=1, ceil_mode=False)
    (6): Flatten(start_dim=1, end_dim=-1)
    (7): Linear(in_features=81, out_features=32, bias=True)
    (8): ReLU()
    (9): Linear(in_features=32, out_features=10, bias=True)
    (10): ReLU()
    (11): Linear(in_features=10, out_features=10, bias=True)
  )
)
Accuracy: 46.5%, Avg loss: 1.465100
NeuralNetwork(
  (linear_relu_stack): Sequential(
    (0): Conv2d(3, 6, kernel_size=(5, 5), stride=(1, 1), padding=(2, 2))
    (1): ReLU()
    (2): MaxPool2d(kernel_size=3, stride=2, padding=0, dilation=1, ceil_mode=False)
    (3): Conv2d(6, 9, kernel_size=(3, 3), stride=(2, 2), padding=(1, 1))
    (4): ReLU()
    (5): MaxPool2d(kernel_size=3, stride=2, padding=0, dilation=1, ceil_mode=False)
    (6): Flatten(start_dim=1, end_dim=-1)
    (7): Linear(in_features=81, out_features=32, bias=True)
    (8): ReLU()
    (9): Linear(in_features=32, out_features=10, bias=True)
    (10): ReLU()
    (11): Linear(in_features=10, out_features=10, bias=True)
  )
)
Accuracy: 50.0%, Avg loss: 1.377466, Epochs: 5
NeuralNetwork(
  (linear_relu_stack): Sequential(
    (0): Conv2d(3, 6, kernel_size=(5, 5), stride=(1, 1), padding=(2, 2))
    (1): ReLU()
    (2): MaxPool2d(kernel_size=3, stride=2, padding=0, dilation=1, ceil_mode=False)
    (3): Conv2d(6, 9, kernel_size=(3, 3), stride=(2, 2), padding=(1, 1))
    (4): ReLU()
    (5): MaxPool2d(kernel_size=3, stride=2, padding=0, dilation=1, ceil_mode=False)
    (6): Flatten(start_dim=1, end_dim=-1)
    (7): Linear(in_features=81, out_features=32, bias=True)
    (8): ReLU()
    (9): Linear(in_features=32, out_features=10, bias=True)
    (10): ReLU()
    (11): Linear(in_features=10, out_features=10, bias=True)
  )
)
Accuracy: 20.1%, Avg loss: 2.097034, Epochs: 5
NeuralNetwork(
  (linear_relu_stack): Sequential(
    (0): Conv2d(3, 6, kernel_size=(5, 5), stride=(1, 1), padding=(2, 2))
    (1): ReLU()
    (2): MaxPool2d(kernel_size=3, stride=2, padding=0, dilation=1, ceil_mode=False)
    (3): Conv2d(6, 9, kernel_size=(3, 3), stride=(2, 2), padding=(1, 1))
    (4): ReLU()
    (5): MaxPool2d(kernel_size=3, stride=2, padding=0, dilation=1, ceil_mode=False)
    (6): Conv2d(9, 12, kernel_size=(3, 3), stride=(1, 1), padding=(1, 1))
    (7): ReLU()
    (8): MaxPool2d(kernel_size=3, stride=1, padding=0, dilation=1, ceil_mode=False)
    (9): Flatten(start_dim=1, end_dim=-1)
    (10): Linear(in_features=12, out_features=12, bias=True)
    (11): ReLU()
    (12): Linear(in_features=12, out_features=10, bias=True)
  )
)
Accuracy: 34.0%, Avg loss: 1.750032, Epochs: 5
NeuralNetwork(
  (linear_relu_stack): Sequential(
    (0): Conv2d(3, 6, kernel_size=(5, 5), stride=(1, 1), padding=(2, 2))
    (1): ReLU()
    (2): MaxPool2d(kernel_size=3, stride=2, padding=0, dilation=1, ceil_mode=False)
    (3): Conv2d(6, 9, kernel_size=(3, 3), stride=(2, 2), padding=(1, 1))
    (4): ReLU()
    (5): MaxPool2d(kernel_size=3, stride=2, padding=0, dilation=1, ceil_mode=False)
    (6): Conv2d(9, 12, kernel_size=(3, 3), stride=(1, 1), padding=(1, 1))
    (7): ReLU()
    (8): MaxPool2d(kernel_size=3, stride=1, padding=0, dilation=1, ceil_mode=False)
    (9): Flatten(start_dim=1, end_dim=-1)
    (10): Linear(in_features=12, out_features=12, bias=True)
    (11): ReLU()
    (12): Linear(in_features=12, out_features=10, bias=True)
  )
)
Accuracy: 41.4%, Avg loss: 1.580661, Epochs: 5
NeuralNetwork(
  (linear_relu_stack): Sequential(
    (0): Conv2d(3, 6, kernel_size=(5, 5), stride=(1, 1), padding=(2, 2))
    (1): ReLU()
    (2): MaxPool2d(kernel_size=3, stride=2, padding=0, dilation=1, ceil_mode=False)
    (3): Conv2d(6, 9, kernel_size=(3, 3), stride=(2, 2), padding=(1, 1))
    (4): ReLU()
    (5): MaxPool2d(kernel_size=3, stride=2, padding=0, dilation=1, ceil_mode=False)
    (6): Conv2d(9, 12, kernel_size=(3, 3), stride=(1, 1), padding=(1, 1))
    (7): ReLU()
    (8): MaxPool2d(kernel_size=3, stride=1, padding=0, dilation=1, ceil_mode=False)
    (9): Flatten(start_dim=1, end_dim=-1)
    (10): Linear(in_features=12, out_features=12, bias=True)
    (11): ReLU()
    (12): Linear(in_features=12, out_features=10, bias=True)
  )
)
Accuracy: 51.1%, Avg loss: 1.355795, Epochs: 15
NeuralNetwork(
  (linear_relu_stack): Sequential(
    (0): Conv2d(3, 6, kernel_size=(5, 5), stride=(1, 1), padding=(2, 2))
    (1): ReLU()
    (2): MaxPool2d(kernel_size=3, stride=2, padding=0, dilation=1, ceil_mode=False)
    (3): Conv2d(6, 9, kernel_size=(3, 3), stride=(2, 2), padding=(1, 1))
    (4): ReLU()
    (5): MaxPool2d(kernel_size=3, stride=2, padding=0, dilation=1, ceil_mode=False)
    (6): Conv2d(9, 12, kernel_size=(3, 3), stride=(1, 1), padding=(1, 1))
    (7): ReLU()
    (8): MaxPool2d(kernel_size=3, stride=1, padding=0, dilation=1, ceil_mode=False)
    (9): Flatten(start_dim=1, end_dim=-1)
    (10): Linear(in_features=12, out_features=12, bias=True)
    (11): ReLU()
    (12): Linear(in_features=12, out_features=10, bias=True)
  )
)
Accuracy: 50.8%, Avg loss: 1.361485, Epochs: 15
NeuralNetwork(
  (linear_relu_stack): Sequential(
    (0): Conv2d(3, 6, kernel_size=(5, 5), stride=(1, 1), padding=(2, 2))
    (1): ReLU()
    (2): MaxPool2d(kernel_size=3, stride=2, padding=0, dilation=1, ceil_mode=False)
    (3): Conv2d(6, 12, kernel_size=(3, 3), stride=(2, 2), padding=(1, 1))
    (4): ReLU()
    (5): MaxPool2d(kernel_size=3, stride=2, padding=0, dilation=1, ceil_mode=False)
    (6): Flatten(start_dim=1, end_dim=-1)
    (7): Linear(in_features=108, out_features=32, bias=True)
    (8): ReLU()
    (9): Linear(in_features=32, out_features=10, bias=True)
  )
)
Accuracy: 45.5%, Avg loss: 1.506048, Epochs: 15
NeuralNetwork(
  (linear_relu_stack): Sequential(
    (0): Conv2d(3, 6, kernel_size=(5, 5), stride=(1, 1), padding=(2, 2))
    (1): ReLU()
    (2): MaxPool2d(kernel_size=3, stride=2, padding=0, dilation=1, ceil_mode=False)
    (3): Conv2d(6, 16, kernel_size=(3, 3), stride=(3, 3))
    (4): ReLU()
    (5): MaxPool2d(kernel_size=3, stride=2, padding=0, dilation=1, ceil_mode=False)
    (6): Flatten(start_dim=1, end_dim=-1)
    (7): Linear(in_features=64, out_features=32, bias=True)
    (8): ReLU()
    (9): Linear(in_features=32, out_features=10, bias=True)
  )
)
Accuracy: 51.7%, Avg loss: 1.347778, Epochs: 15
NeuralNetwork(
  (linear_relu_stack): Sequential(
    (0): Conv2d(3, 6, kernel_size=(5, 5), stride=(1, 1), padding=(2, 2))
    (1): ReLU()
    (2): MaxPool2d(kernel_size=3, stride=2, padding=0, dilation=1, ceil_mode=False)
    (3): Conv2d(6, 16, kernel_size=(3, 3), stride=(3, 3))
    (4): ReLU()
    (5): MaxPool2d(kernel_size=3, stride=2, padding=0, dilation=1, ceil_mode=False)
    (6): Flatten(start_dim=1, end_dim=-1)
    (7): Linear(in_features=64, out_features=32, bias=True)
    (8): ReLU()
    (9): Linear(in_features=32, out_features=10, bias=True)
  )
)
Accuracy: 52.4%, Avg loss: 1.320201, Epochs: 15
NeuralNetwork(
  (linear_relu_stack): Sequential(
    (0): Conv2d(3, 6, kernel_size=(5, 5), stride=(1, 1), padding=(2, 2))
    (1): ReLU()
    (2): MaxPool2d(kernel_size=3, stride=2, padding=0, dilation=1, ceil_mode=False)
    (3): Conv2d(6, 16, kernel_size=(3, 3), stride=(3, 3))
    (4): ReLU()
    (5): MaxPool2d(kernel_size=3, stride=2, padding=0, dilation=1, ceil_mode=False)
    (6): Flatten(start_dim=1, end_dim=-1)
    (7): Linear(in_features=64, out_features=32, bias=True)
    (8): ReLU()
    (9): Linear(in_features=32, out_features=10, bias=True)
  )
)
Accuracy: 23.5%, Avg loss: 2.102864, Epochs: 15
NeuralNetwork(
  (linear_relu_stack): Sequential(
    (0): Conv2d(3, 6, kernel_size=(5, 5), stride=(1, 1), padding=(2, 2))
    (1): ReLU()
    (2): MaxPool2d(kernel_size=3, stride=2, padding=0, dilation=1, ceil_mode=False)
    (3): Conv2d(6, 16, kernel_size=(3, 3), stride=(3, 3))
    (4): ReLU()
    (5): MaxPool2d(kernel_size=3, stride=2, padding=0, dilation=1, ceil_mode=False)
    (6): Flatten(start_dim=1, end_dim=-1)
    (7): Linear(in_features=64, out_features=32, bias=True)
    (8): ReLU()
    (9): Linear(in_features=32, out_features=10, bias=True)
  )
)
Accuracy: 21.7%, Avg loss: 2.147533, Epochs: 15
NeuralNetwork(
  (linear_relu_stack): Sequential(
    (0): Conv2d(3, 6, kernel_size=(5, 5), stride=(1, 1), padding=(2, 2))
    (1): ReLU()
    (2): MaxPool2d(kernel_size=3, stride=2, padding=0, dilation=1, ceil_mode=False)
    (3): Conv2d(6, 16, kernel_size=(3, 3), stride=(3, 3))
    (4): ReLU()
    (5): MaxPool2d(kernel_size=3, stride=2, padding=0, dilation=1, ceil_mode=False)
    (6): Flatten(start_dim=1, end_dim=-1)
    (7): Linear(in_features=64, out_features=32, bias=True)
    (8): ReLU()
    (9): Linear(in_features=32, out_features=10, bias=True)
  )
)
Accuracy: 20.9%, Avg loss: 2.179383, Epochs: 15
NeuralNetwork(
  (linear_relu_stack): Sequential(
    (0): Conv2d(3, 6, kernel_size=(5, 5), stride=(1, 1), padding=(2, 2))
    (1): ReLU()
    (2): MaxPool2d(kernel_size=3, stride=2, padding=0, dilation=1, ceil_mode=False)
    (3): Conv2d(6, 16, kernel_size=(3, 3), stride=(3, 3))
    (4): ReLU()
    (5): MaxPool2d(kernel_size=3, stride=2, padding=0, dilation=1, ceil_mode=False)
    (6): Flatten(start_dim=1, end_dim=-1)
    (7): Linear(in_features=64, out_features=32, bias=True)
    (8): ReLU()
    (9): Linear(in_features=32, out_features=10, bias=True)
  )
)
Accuracy: 51.6%, Avg loss: 1.336339, Epochs: 15
NeuralNetwork(
  (linear_relu_stack): Sequential(
    (0): Conv2d(3, 6, kernel_size=(5, 5), stride=(1, 1), padding=(2, 2))
    (1): ReLU()
    (2): MaxPool2d(kernel_size=3, stride=2, padding=0, dilation=1, ceil_mode=False)
    (3): Conv2d(6, 16, kernel_size=(3, 3), stride=(3, 3))
    (4): ReLU()
    (5): MaxPool2d(kernel_size=3, stride=2, padding=0, dilation=1, ceil_mode=False)
    (6): Flatten(start_dim=1, end_dim=-1)
    (7): Linear(in_features=64, out_features=32, bias=True)
    (8): ReLU()
    (9): Linear(in_features=32, out_features=10, bias=True)
  )
)
Accuracy: 54.6%, Avg loss: 1.273976, Epochs: 15
NeuralNetwork(
  (linear_relu_stack): Sequential(
    (0): Conv2d(3, 6, kernel_size=(5, 5), stride=(1, 1), padding=(2, 2))
    (1): ReLU()
    (2): MaxPool2d(kernel_size=3, stride=2, padding=0, dilation=1, ceil_mode=False)
    (3): Conv2d(6, 16, kernel_size=(3, 3), stride=(3, 3))
    (4): ReLU()
    (5): MaxPool2d(kernel_size=3, stride=2, padding=0, dilation=1, ceil_mode=False)
    (6): Flatten(start_dim=1, end_dim=-1)
    (7): Linear(in_features=64, out_features=32, bias=True)
    (8): ReLU()
    (9): Linear(in_features=32, out_features=10, bias=True)
  )
)
Accuracy: 45.7%, Avg loss: 2.000909, Epochs: 15
NeuralNetwork(
  (linear_relu_stack): Sequential(
    (0): Conv2d(3, 6, kernel_size=(5, 5), stride=(1, 1), padding=(2, 2))
    (1): ReLU()
    (2): MaxPool2d(kernel_size=3, stride=2, padding=0, dilation=1, ceil_mode=False)
    (3): Conv2d(6, 16, kernel_size=(3, 3), stride=(3, 3))
    (4): ReLU()
    (5): MaxPool2d(kernel_size=3, stride=2, padding=0, dilation=1, ceil_mode=False)
    (6): Flatten(start_dim=1, end_dim=-1)
    (7): Linear(in_features=64, out_features=32, bias=True)
    (8): ReLU()
    (9): Linear(in_features=32, out_features=10, bias=True)
    (10): Softmax(dim=None)
  )
)
Accuracy: 43.8%, Avg loss: 2.021733, Epochs: 15
NeuralNetwork(
  (linear_relu_stack): Sequential(
    (0): Conv2d(3, 6, kernel_size=(5, 5), stride=(1, 1), padding=(2, 2))
    (1): ReLU()
    (2): MaxPool2d(kernel_size=3, stride=2, padding=0, dilation=1, ceil_mode=False)
    (3): Conv2d(6, 16, kernel_size=(3, 3), stride=(3, 3))
    (4): ReLU()
    (5): MaxPool2d(kernel_size=3, stride=2, padding=0, dilation=1, ceil_mode=False)
    (6): Flatten(start_dim=1, end_dim=-1)
    (7): Linear(in_features=64, out_features=32, bias=True)
    (8): ReLU()
    (9): Linear(in_features=32, out_features=10, bias=True)
    (10): Softmax(dim=None)
  )
)
Accuracy: 48.0%, Avg loss: 1.977792, Epochs: 50
NeuralNetwork(
  (linear_relu_stack): Sequential(
    (0): Conv2d(3, 6, kernel_size=(5, 5), stride=(1, 1), padding=(2, 2))
    (1): ReLU()
    (2): MaxPool2d(kernel_size=3, stride=2, padding=0, dilation=1, ceil_mode=False)
    (3): Conv2d(6, 16, kernel_size=(3, 3), stride=(3, 3))
    (4): ReLU()
    (5): MaxPool2d(kernel_size=3, stride=2, padding=0, dilation=1, ceil_mode=False)
    (6): Flatten(start_dim=1, end_dim=-1)
    (7): Linear(in_features=64, out_features=32, bias=True)
    (8): ReLU()
    (9): Linear(in_features=32, out_features=10, bias=True)
    (10): Softmax(dim=None)
  )
)
Accuracy: 62.8%, Avg loss: 1.105337, Epochs: 5
NeuralNetwork(
  (linear_relu_stack): Sequential(
    (0): Conv2d(3, 96, kernel_size=(11, 11), stride=(4, 4))
    (1): ReLU()
    (2): MaxPool2d(kernel_size=3, stride=2, padding=0, dilation=1, ceil_mode=False)
    (3): Conv2d(96, 256, kernel_size=(5, 5), stride=(1, 1), padding=(2, 2))
    (4): ReLU()
    (5): MaxPool2d(kernel_size=3, stride=2, padding=0, dilation=1, ceil_mode=False)
    (6): Conv2d(256, 384, kernel_size=(3, 3), stride=(1, 1), padding=(1, 1))
    (7): ReLU()
    (8): Conv2d(384, 384, kernel_size=(3, 3), stride=(1, 1), padding=(1, 1))
    (9): ReLU()
    (10): Conv2d(384, 256, kernel_size=(3, 3), stride=(1, 1), padding=(1, 1))
    (11): ReLU()
    (12): MaxPool2d(kernel_size=3, stride=2, padding=0, dilation=1, ceil_mode=False)
    (13): Flatten(start_dim=1, end_dim=-1)
    (14): Linear(in_features=6400, out_features=1000, bias=True)
    (15): ReLU()
    (16): Linear(in_features=1000, out_features=10, bias=True)
  )
)
Accuracy: 57.3%, Avg loss: 1.886698, Epochs: 10
NeuralNetwork(
  (linear_relu_stack): Sequential(
    (0): Conv2d(3, 30, kernel_size=(3, 3), stride=(1, 1))
    (1): ReLU()
    (2): MaxPool2d(kernel_size=2, stride=2, padding=0, dilation=1, ceil_mode=False)
    (3): Conv2d(30, 13, kernel_size=(3, 3), stride=(1, 1))
    (4): ReLU()
    (5): MaxPool2d(kernel_size=2, stride=3, padding=0, dilation=1, ceil_mode=False)
    (6): Flatten(start_dim=1, end_dim=-1)
    (7): Linear(in_features=208, out_features=120, bias=True)
    (8): ReLU()
    (9): Linear(in_features=120, out_features=86, bias=True)
    (10): ReLU()
    (11): Linear(in_features=86, out_features=10, bias=True)
    (12): Softmax(dim=None)
  )
)
Accuracy: 59.1%, Avg loss: 1.868415, Epochs: 10
NeuralNetwork(
  (linear_relu_stack): Sequential(
    (0): Conv2d(3, 30, kernel_size=(3, 3), stride=(1, 1))
    (1): ReLU()
    (2): MaxPool2d(kernel_size=2, stride=2, padding=0, dilation=1, ceil_mode=False)
    (3): Conv2d(30, 13, kernel_size=(3, 3), stride=(1, 1))
    (4): ReLU()
    (5): MaxPool2d(kernel_size=2, stride=3, padding=0, dilation=1, ceil_mode=False)
    (6): Flatten(start_dim=1, end_dim=-1)
    (7): Linear(in_features=208, out_features=120, bias=True)
    (8): ReLU()
    (9): Linear(in_features=120, out_features=86, bias=True)
    (10): ReLU()
    (11): Linear(in_features=86, out_features=10, bias=True)
    (12): Softmax(dim=1)
  )
)
Accuracy: 30.4%, Avg loss: 2.153602, Epochs: 10
NeuralNetwork(
  (linear_relu_stack): Sequential(
    (0): Conv2d(3, 30, kernel_size=(3, 3), stride=(1, 1))
    (1): ReLU()
    (2): MaxPool2d(kernel_size=2, stride=2, padding=0, dilation=1, ceil_mode=False)
    (3): Conv2d(30, 13, kernel_size=(3, 3), stride=(1, 1))
    (4): ReLU()
    (5): MaxPool2d(kernel_size=2, stride=3, padding=0, dilation=1, ceil_mode=False)
    (6): Flatten(start_dim=1, end_dim=-1)
    (7): Linear(in_features=208, out_features=120, bias=True)
    (8): ReLU()
    (9): Linear(in_features=120, out_features=86, bias=True)
    (10): ReLU()
    (11): Linear(in_features=86, out_features=10, bias=True)
    (12): Softmax(dim=1)
  )
)
